Training History:
accuracy: [… cosine_similarity: [… loss: [… mean_absolute_error: [… mean_absolute_percentage_error: [… mean_squared_error: [… mean_squared_logarithmic_error: [… val_accuracy: [… val_cosine_similarity: [… val_loss: [… val_mean_absolute_error: [… val_mean_absolute_percentage_error: [… val_mean_squared_error: [… val_mean_squared_logarithmic_error: [… Model Configuration:
Model: "functional_1"

 Layer (type)         Output Shape          Param #  Connected to      

 input_layer          (None, 3, 3, 2)             0  -                 
 (InputLayer)                                                          

 conv2d (Conv2D)      (None, 3, 3, 64)        1,216  input_layer[0][0] 

 batch_normalization  (None, 3, 3, 64)          256  conv2d[0][0]      
 (BatchNormalizatio                                                   

 activation           (None, 3, 3, 64)            0  batch_normalizat 
 (Activation)                                                          

 global_average_poo  (None, 64)                  0  activation[0][0]  
 (GlobalAveragePool                                                   

 dense (Dense)        (None, 4)                 260  global_average_p 

 dense_1 (Dense)      (None, 64)                320  dense[0][0]       

 reshape (Reshape)    (None, 1, 1, 64)            0  dense_1[0][0]     

 multiply (Multiply)  (None, 3, 3, 64)            0  activation[0][0], 
                                                     reshape[0][0]     

 conv2d_1 (Conv2D)    (None, 3, 3, 64)       36,928  multiply[0][0]    

 batch_normalizatio  (None, 3, 3, 64)          256  conv2d_1[0][0]    
 (BatchNormalizatio                                                   

 activation_1         (None, 3, 3, 64)            0  batch_normalizat 
 (Activation)                                                          

 global_average_poo  (None, 64)                  0  activation_1[0][ 
 (GlobalAveragePool                                                   

 dense_2 (Dense)      (None, 4)                 260  global_average_p 

 dense_3 (Dense)      (None, 64)                320  dense_2[0][0]     

 reshape_1 (Reshape)  (None, 1, 1, 64)            0  dense_3[0][0]     

 multiply_1           (None, 3, 3, 64)            0  activation_1[0][ 
 (Multiply)                                          reshape_1[0][0]   

 conv2d_2 (Conv2D)    (None, 3, 3, 64)       36,928  multiply_1[0][0]  

 batch_normalizatio  (None, 3, 3, 64)          256  conv2d_2[0][0]    
 (BatchNormalizatio                                                   

 activation_2         (None, 3, 3, 64)            0  batch_normalizat 
 (Activation)                                                          

 global_average_poo  (None, 64)                  0  activation_2[0][ 
 (GlobalAveragePool                                                   

 dense_4 (Dense)      (None, 4)                 260  global_average_p 

 dense_5 (Dense)      (None, 64)                320  dense_4[0][0]     

 reshape_2 (Reshape)  (None, 1, 1, 64)            0  dense_5[0][0]     

 multiply_2           (None, 3, 3, 64)            0  activation_2[0][ 
 (Multiply)                                          reshape_2[0][0]   

 dropout (Dropout)    (None, 3, 3, 64)            0  multiply_2[0][0]  

 conv2d_3 (Conv2D)    (None, 3, 3, 8)           520  dropout[0][0]     

 conv2d_6 (Conv2D)    (None, 3, 3, 1)             9  conv2d_3[0][0]    

 permute (Permute)    (None, 1, 3, 3)             0  conv2d_6[0][0]    

 activation_3         (None, 1, 3, 3)             0  permute[0][0]     
 (Activation)                                                          

 conv2d_5 (Conv2D)    (None, 3, 3, 64)        4,160  dropout[0][0]     

 permute_1 (Permute)  (None, 3, 3, 1)             0  activation_3[0][ 

 multiply_3           (None, 3, 3, 64)            0  conv2d_5[0][0],   
 (Multiply)                                          permute_1[0][0]   

 conv2d_7 (Conv2D)    (None, 3, 3, 128)      73,856  multiply_3[0][0]  

 batch_normalizatio  (None, 3, 3, 128)         512  conv2d_7[0][0]    
 (BatchNormalizatio                                                   

 activation_4         (None, 3, 3, 128)           0  batch_normalizat 
 (Activation)                                                          

 conv2d_8 (Conv2D)    (None, 3, 3, 16)        2,064  activation_4[0][ 

 conv2d_11 (Conv2D)   (None, 3, 3, 1)            17  conv2d_8[0][0]    

 permute_2 (Permute)  (None, 1, 3, 3)             0  conv2d_11[0][0]   

 activation_5         (None, 1, 3, 3)             0  permute_2[0][0]   
 (Activation)                                                          

 conv2d_10 (Conv2D)   (None, 3, 3, 128)      16,512  activation_4[0][ 

 permute_3 (Permute)  (None, 3, 3, 1)             0  activation_5[0][ 

 multiply_4           (None, 3, 3, 128)           0  conv2d_10[0][0],  
 (Multiply)                                          permute_3[0][0]   

 conv2d_12 (Conv2D)   (None, 3, 3, 128)     147,584  multiply_4[0][0]  

 batch_normalizatio  (None, 3, 3, 128)         512  conv2d_12[0][0]   
 (BatchNormalizatio                                                   

 activation_6         (None, 3, 3, 128)           0  batch_normalizat 
 (Activation)                                                          

 conv2d_13 (Conv2D)   (None, 3, 3, 16)        2,064  activation_6[0][ 

 conv2d_16 (Conv2D)   (None, 3, 3, 1)            17  conv2d_13[0][0]   

 permute_4 (Permute)  (None, 1, 3, 3)             0  conv2d_16[0][0]   

 activation_7         (None, 1, 3, 3)             0  permute_4[0][0]   
 (Activation)                                                          

 conv2d_15 (Conv2D)   (None, 3, 3, 128)      16,512  activation_6[0][ 

 permute_5 (Permute)  (None, 3, 3, 1)             0  activation_7[0][ 

 multiply_5           (None, 3, 3, 128)           0  conv2d_15[0][0],  
 (Multiply)                                          permute_5[0][0]   

 dropout_1 (Dropout)  (None, 3, 3, 128)           0  multiply_5[0][0]  

 conv2d_17 (Conv2D)   (None, 3, 3, 256)     295,168  dropout_1[0][0]   

 batch_normalizatio  (None, 3, 3, 256)       1,024  conv2d_17[0][0]   
 (BatchNormalizatio                                                   

 activation_8         (None, 3, 3, 256)           0  batch_normalizat 
 (Activation)                                                          

 conv2d_18 (Conv2D)   (None, 3, 3, 256)     590,080  activation_8[0][ 

 batch_normalizatio  (None, 3, 3, 256)       1,024  conv2d_18[0][0]   
 (BatchNormalizatio                                                   

 activation_9         (None, 3, 3, 256)           0  batch_normalizat 
 (Activation)                                                          

 conv2d_19 (Conv2D)   (None, 3, 3, 256)     590,080  activation_9[0][ 

 batch_normalizatio  (None, 3, 3, 256)       1,024  conv2d_19[0][0]   
 (BatchNormalizatio                                                   

 activation_10        (None, 3, 3, 256)           0  batch_normalizat 
 (Activation)                                                          

 dropout_2 (Dropout)  (None, 3, 3, 256)           0  activation_10[0] 

 flatten (Flatten)    (None, 2304)                0  dropout_2[0][0]   

 dense_6 (Dense)      (None, 512)         1,180,160  flatten[0][0]     

 dropout_3 (Dropout)  (None, 512)                 0  dense_6[0][0]     

 dense_7 (Dense)      (None, 256)           131,328  dropout_3[0][0]   

 dropout_4 (Dropout)  (None, 256)                 0  dense_7[0][0]     

 dense_8 (Dense)      (None, 3)                 771  dropout_4[0][0]   

 Total params: 9,392,872 (35.83 MB)
 Trainable params: 3,130,146 (11.94 MB)
 Non-trainable params: 2,432 (9.50 KB)
 Optimizer params: 6,260,294 (23.88 MB)

