…
loss: [… accuracy: [… mean_absolute_error: [… mean_squared_error: [… mean_absolute_percentage_error: [… mean_squared_logarithmic_error: [… cosine_similarity: [… log_cosh: [… val_loss: [… val_accuracy: [… val_mean_absolute_error: [… val_mean_squared_error: [… val_mean_absolute_percentage_error: [… val_mean_squared_logarithmic_error: [… val_cosine_similarity: [… val_log_cosh: [… Model Configuration:
Model: "sequential"
_________________________________________________________________
 Layer (type)                Output Shape              Param #   
=================================================================
 conv2d (Conv2D)             (None, 3, 3, 64)          1216      
                                                                 
 batch_normalization (Batch  (None, 3, 3, 64)          256       
 Normalization)                                                  
                                                                 
 leaky_re_lu (LeakyReLU)     (None, 3, 3, 64)          0         
                                                                 
 conv2d_1 (Conv2D)           (None, 3, 3, 64)          36928     
                                                                 
 batch_normalization_1 (Bat  (None, 3, 3, 64)          256       
 chNormalization)                                                
                                                                 
 leaky_re_lu_1 (LeakyReLU)   (None, 3, 3, 64)          0         
                                                                 
 conv2d_2 (Conv2D)           (None, 3, 3, 64)          36928     
                                                                 
 batch_normalization_2 (Bat  (None, 3, 3, 64)          256       
 chNormalization)                                                
                                                                 
 leaky_re_lu_2 (LeakyReLU)   (None, 3, 3, 64)          0         
                                                                 
 dropout (Dropout)           (None, 3, 3, 64)          0         
                                                                 
 conv2d_3 (Conv2D)           (None, 3, 3, 128)         73856     
                                                                 
 batch_normalization_3 (Bat  (None, 3, 3, 128)         512       
 chNormalization)                                                
                                                                 
 leaky_re_lu_3 (LeakyReLU)   (None, 3, 3, 128)         0         
                                                                 
 conv2d_4 (Conv2D)           (None, 3, 3, 128)         147584    
                                                                 
 batch_normalization_4 (Bat  (None, 3, 3, 128)         512       
 chNormalization)                                                
                                                                 
 leaky_re_lu_4 (LeakyReLU)   (None, 3, 3, 128)         0         
                                                                 
 conv2d_5 (Conv2D)           (None, 3, 3, 128)         147584    
                                                                 
 batch_normalization_5 (Bat  (None, 3, 3, 128)         512       
 chNormalization)                                                
                                                                 
 leaky_re_lu_5 (LeakyReLU)   (None, 3, 3, 128)         0         
                                                                 
 dropout_1 (Dropout)         (None, 3, 3, 128)         0         
                                                                 
 conv2d_6 (Conv2D)           (None, 3, 3, 256)         295168    
                                                                 
 batch_normalization_6 (Bat  (None, 3, 3, 256)         1024      
 chNormalization)                                                
                                                                 
 leaky_re_lu_6 (LeakyReLU)   (None, 3, 3, 256)         0         
                                                                 
 conv2d_7 (Conv2D)           (None, 3, 3, 256)         590080    
                                                                 
 batch_normalization_7 (Bat  (None, 3, 3, 256)         1024      
 chNormalization)                                                
                                                                 
 leaky_re_lu_7 (LeakyReLU)   (None, 3, 3, 256)         0         
                                                                 
 conv2d_8 (Conv2D)           (None, 3, 3, 256)         590080    
                                                                 
 batch_normalization_8 (Bat  (None, 3, 3, 256)         1024      
 chNormalization)                                                
                                                                 
 leaky_re_lu_8 (LeakyReLU)   (None, 3, 3, 256)         0         
                                                                 
 dropout_2 (Dropout)         (None, 3, 3, 256)         0         
                                                                 
 flatten (Flatten)           (None, 2304)              0         
                                                                 
 dense (Dense)               (None, 512)               1180160   
                                                                 
 batch_normalization_9 (Bat  (None, 512)               2048      
 chNormalization)                                                
                                                                 
 leaky_re_lu_9 (LeakyReLU)   (None, 512)               0         
                                                                 
 dropout_3 (Dropout)         (None, 512)               0         
                                                                 
 dense_1 (Dense)             (None, 256)               131328    
                                                                 
 batch_normalization_10 (Ba  (None, 256)               1024      
 tchNormalization)                                               
                                                                 
 leaky_re_lu_10 (LeakyReLU)  (None, 256)               0         
                                                                 
 dropout_4 (Dropout)         (None, 256)               0         
                                                                 
 dense_2 (Dense)             (None, 3)                 771       
                                                                 
=================================================================
Total params: 3240131 (12.36 MB)
Trainable params: 3235907 (12.34 MB)
Non-trainable params: 4224 (16.50 KB)
_________________________________________________________________
