…
_similarity: [… val_log_cosh: [… Model Configuration:
Model: "model"
__________________________________________________________________________________________________
 Layer (type)                Output Shape                 Param #   Connected to                  
==================================================================================================
 input_1 (InputLayer)        [(None, 3, 3, 2)]            0         []                            
                                                                                                  
 conv2d (Conv2D)             (None, 3, 3, 64)             1216      ['input_1[0][0]']             
                                                                                                  
 batch_normalization (Batch  (None, 3, 3, 64)             256       ['conv2d[0][0]']              
 Normalization)                                                                                   
                                                                                                  
 activation (Activation)     (None, 3, 3, 64)             0         ['batch_normalization[0][0]'] 
                                                                                                  
 global_average_pooling2d (  (None, 64)                   0         ['activation[0][0]']          
 GlobalAveragePooling2D)                                                                          
                                                                                                  
 dense (Dense)               (None, 4)                    260       ['global_average_pooling2d[0][
                                                                    0]']                          
                                                                                                  
 dense_1 (Dense)             (None, 64)                   320       ['dense[0][0]']               
                                                                                                  
 reshape (Reshape)           (None, 1, 1, 64)             0         ['dense_1[0][0]']             
                                                                                                  
 multiply (Multiply)         (None, 3, 3, 64)             0         ['activation[0][0]',          
                                                                     'reshape[0][0]']             
                                                                                                  
 conv2d_1 (Conv2D)           (None, 3, 3, 64)             36928     ['multiply[0][0]']            
                                                                                                  
 batch_normalization_1 (Bat  (None, 3, 3, 64)             256       ['conv2d_1[0][0]']            
 chNormalization)                                                                                 
                                                                                                  
 activation_1 (Activation)   (None, 3, 3, 64)             0         ['batch_normalization_1[0][0]'
                                                                    ]                             
                                                                                                  
 global_average_pooling2d_1  (None, 64)                   0         ['activation_1[0][0]']        
  (GlobalAveragePooling2D)                                                                        
                                                                                                  
 dense_2 (Dense)             (None, 4)                    260       ['global_average_pooling2d_1[0
                                                                    ][0]']                        
                                                                                                  
 dense_3 (Dense)             (None, 64)                   320       ['dense_2[0][0]']             
                                                                                                  
 reshape_1 (Reshape)         (None, 1, 1, 64)             0         ['dense_3[0][0]']             
                                                                                                  
 multiply_1 (Multiply)       (None, 3, 3, 64)             0         ['activation_1[0][0]',        
                                                                     'reshape_1[0][0]']           
                                                                                                  
 conv2d_2 (Conv2D)           (None, 3, 3, 64)             36928     ['multiply_1[0][0]']          
                                                                                                  
 batch_normalization_2 (Bat  (None, 3, 3, 64)             256       ['conv2d_2[0][0]']            
 chNormalization)                                                                                 
                                                                                                  
 activation_2 (Activation)   (None, 3, 3, 64)             0         ['batch_normalization_2[0][0]'
                                                                    ]                             
                                                                                                  
 global_average_pooling2d_2  (None, 64)                   0         ['activation_2[0][0]']        
  (GlobalAveragePooling2D)                                                                        
                                                                                                  
 dense_4 (Dense)             (None, 4)                    260       ['global_average_pooling2d_2[0
                                                                    ][0]']                        
                                                                                                  
 dense_5 (Dense)             (None, 64)                   320       ['dense_4[0][0]']             
                                                                                                  
 reshape_2 (Reshape)         (None, 1, 1, 64)             0         ['dense_5[0][0]']             
                                                                                                  
 multiply_2 (Multiply)       (None, 3, 3, 64)             0         ['activation_2[0][0]',        
                                                                     'reshape_2[0][0]']           
                                                                                                  
 dropout (Dropout)           (None, 3, 3, 64)             0         ['multiply_2[0][0]']          
                                                                                                  
 conv2d_3 (Conv2D)           (None, 3, 3, 8)              520       ['dropout[0][0]']             
                                                                                                  
 conv2d_6 (Conv2D)           (None, 3, 3, 1)              9         ['conv2d_3[0][0]']            
                                                                                                  
 permute (Permute)           (None, 1, 3, 3)              0         ['conv2d_6[0][0]']            
                                                                                                  
 activation_3 (Activation)   (None, 1, 3, 3)              0         ['permute[0][0]']             
                                                                                                  
 conv2d_5 (Conv2D)           (None, 3, 3, 64)             4160      ['dropout[0][0]']             
                                                                                                  
 permute_1 (Permute)         (None, 3, 3, 1)              0         ['activation_3[0][0]']        
                                                                                                  
 multiply_3 (Multiply)       (None, 3, 3, 64)             0         ['conv2d_5[0][0]',            
                                                                     'permute_1[0][0]']           
                                                                                                  
 conv2d_7 (Conv2D)           (None, 3, 3, 128)            73856     ['multiply_3[0][0]']          
                                                                                                  
 batch_normalization_3 (Bat  (None, 3, 3, 128)            512       ['conv2d_7[0][0]']            
 chNormalization)                                                                                 
                                                                                                  
 activation_4 (Activation)   (None, 3, 3, 128)            0         ['batch_normalization_3[0][0]'
                                                                    ]                             
                                                                                                  
 conv2d_8 (Conv2D)           (None, 3, 3, 16)             2064      ['activation_4[0][0]']        
                                                                                                  
 conv2d_11 (Conv2D)          (None, 3, 3, 1)              17        ['conv2d_8[0][0]']            
                                                                                                  
 permute_2 (Permute)         (None, 1, 3, 3)              0         ['conv2d_11[0][0]']           
                                                                                                  
 activation_5 (Activation)   (None, 1, 3, 3)              0         ['permute_2[0][0]']           
                                                                                                  
 conv2d_10 (Conv2D)          (None, 3, 3, 128)            16512     ['activation_4[0][0]']        
                                                                                                  
 permute_3 (Permute)         (None, 3, 3, 1)              0         ['activation_5[0][0]']        
                                                                                                  
 multiply_4 (Multiply)       (None, 3, 3, 128)            0         ['conv2d_10[0][0]',           
                                                                     'permute_3[0][0]']           
                                                                                                  
 conv2d_12 (Conv2D)          (None, 3, 3, 128)            147584    ['multiply_4[0][0]']          
                                                                                                  
 batch_normalization_4 (Bat  (None, 3, 3, 128)            512       ['conv2d_12[0][0]']           
 chNormalization)                                                                                 
                                                                                                  
 activation_6 (Activation)   (None, 3, 3, 128)            0         ['batch_normalization_4[0][0]'
                                                                    ]                             
                                                                                                  
 conv2d_13 (Conv2D)          (None, 3, 3, 16)             2064      ['activation_6[0][0]']        
                                                                                                  
 conv2d_16 (Conv2D)          (None, 3, 3, 1)              17        ['conv2d_13[0][0]']           
                                                                                                  
 permute_4 (Permute)         (None, 1, 3, 3)              0         ['conv2d_16[0][0]']           
                                                                                                  
 activation_7 (Activation)   (None, 1, 3, 3)              0         ['permute_4[0][0]']           
                                                                                                  
 conv2d_15 (Conv2D)          (None, 3, 3, 128)            16512     ['activation_6[0][0]']        
                                                                                                  
 permute_5 (Permute)         (None, 3, 3, 1)              0         ['activation_7[0][0]']        
                                                                                                  
 multiply_5 (Multiply)       (None, 3, 3, 128)            0         ['conv2d_15[0][0]',           
                                                                     'permute_5[0][0]']           
                                                                                                  
 dropout_1 (Dropout)         (None, 3, 3, 128)            0         ['multiply_5[0][0]']          
                                                                                                  
 conv2d_17 (Conv2D)          (None, 3, 3, 256)            295168    ['dropout_1[0][0]']           
                                                                                                  
 batch_normalization_5 (Bat  (None, 3, 3, 256)            1024      ['conv2d_17[0][0]']           
 chNormalization)                                                                                 
                                                                                                  
 activation_8 (Activation)   (None, 3, 3, 256)            0         ['batch_normalization_5[0][0]'
                                                                    ]                             
                                                                                                  
 conv2d_18 (Conv2D)          (None, 3, 3, 256)            590080    ['activation_8[0][0]']        
                                                                                                  
 batch_normalization_6 (Bat  (None, 3, 3, 256)            1024      ['conv2d_18[0][0]']           
 chNormalization)                                                                                 
                                                                                                  
 activation_9 (Activation)   (None, 3, 3, 256)            0         ['batch_normalization_6[0][0]'
                                                                    ]                             
                                                                                                  
 conv2d_19 (Conv2D)          (None, 3, 3, 256)            590080    ['activation_9[0][0]']        
                                                                                                  
 batch_normalization_7 (Bat  (None, 3, 3, 256)            1024      ['conv2d_19[0][0]']           
 chNormalization)                                                                                 
                                                                                                  
 activation_10 (Activation)  (None, 3, 3, 256)            0         ['batch_normalization_7[0][0]'
                                                                    ]                             
                                                                                                  
 dropout_2 (Dropout)         (None, 3, 3, 256)            0         ['activation_10[0][0]']       
                                                                                                  
 flatten (Flatten)           (None, 2304)                 0         ['dropout_2[0][0]']           
                                                                                                  
 dense_6 (Dense)             (None, 512)                  1180160   ['flatten[0][0]']             
                                                                                                  
 dropout_3 (Dropout)         (None, 512)                  0         ['dense_6[0][0]']             
                                                                                                  
 dense_7 (Dense)             (None, 256)                  131328    ['dropout_3[0][0]']           
                                                                                                  
 dropout_4 (Dropout)         (None, 256)                  0         ['dense_7[0][0]']             
                                                                                                  
 dense_8 (Dense)             (None, 3)                    771       ['dropout_4[0][0]']           
                                                                                                  
==================================================================================================
Total params: 3132578 (11.95 MB)
Trainable params: 3130146 (11.94 MB)
Non-trainable params: 2432 (9.50 KB)
__________________________________________________________________________________________________
