Training History:
accuracy: [… cosine_similarity: [… loss: [… mean_absolute_error: [… mean_absolute_percentage_error: [… mean_squared_error: [… mean_squared_logarithmic_error: [… val_accuracy: [… val_cosine_similarity: [… val_loss: [… val_mean_absolute_error: [… val_mean_absolute_percentage_error: [… val_mean_squared_error: [… val_mean_squared_logarithmic_error: [… Model Configuration:
Model: "functional_1"

 Layer (type)         Output Shape          Param #  Connected to      

 input_layer          (None, 3, 3, 2)             0  -                 
 (InputLayer)                                                          

 conv2d (Conv2D)      (None, 3, 3, 64)        1,216  input_layer[0][0] 

 batch_normalization  (None, 3, 3, 64)          256  conv2d[0][0]      
 (BatchNormalizatio                                                   

 activation           (None, 3, 3, 64)            0  batch_normalizat 
 (Activation)                                                          

 conv2d_1 (Conv2D)    (None, 3, 3, 8)           520  activation[0][0]  

 conv2d_4 (Conv2D)    (None, 3, 3, 1)             9  conv2d_1[0][0]    

 permute (Permute)    (None, 1, 3, 3)             0  conv2d_4[0][0]    

 activation_1         (None, 1, 3, 3)             0  permute[0][0]     
 (Activation)                                                          

 conv2d_3 (Conv2D)    (None, 3, 3, 64)        4,160  activation[0][0]  

 permute_1 (Permute)  (None, 3, 3, 1)             0  activation_1[0][ 

 multiply (Multiply)  (None, 3, 3, 64)            0  conv2d_3[0][0],   
                                                     permute_1[0][0]   

 conv2d_5 (Conv2D)    (None, 3, 3, 64)       36,928  multiply[0][0]    

 batch_normalizatio  (None, 3, 3, 64)          256  conv2d_5[0][0]    
 (BatchNormalizatio                                                   

 activation_2         (None, 3, 3, 64)            0  batch_normalizat 
 (Activation)                                                          

 conv2d_6 (Conv2D)    (None, 3, 3, 8)           520  activation_2[0][ 

 conv2d_9 (Conv2D)    (None, 3, 3, 1)             9  conv2d_6[0][0]    

 permute_2 (Permute)  (None, 1, 3, 3)             0  conv2d_9[0][0]    

 activation_3         (None, 1, 3, 3)             0  permute_2[0][0]   
 (Activation)                                                          

 conv2d_8 (Conv2D)    (None, 3, 3, 64)        4,160  activation_2[0][ 

 permute_3 (Permute)  (None, 3, 3, 1)             0  activation_3[0][ 

 multiply_1           (None, 3, 3, 64)            0  conv2d_8[0][0],   
 (Multiply)                                          permute_3[0][0]   

 conv2d_10 (Conv2D)   (None, 3, 3, 64)       36,928  multiply_1[0][0]  

 batch_normalizatio  (None, 3, 3, 64)          256  conv2d_10[0][0]   
 (BatchNormalizatio                                                   

 activation_4         (None, 3, 3, 64)            0  batch_normalizat 
 (Activation)                                                          

 conv2d_11 (Conv2D)   (None, 3, 3, 8)           520  activation_4[0][ 

 conv2d_14 (Conv2D)   (None, 3, 3, 1)             9  conv2d_11[0][0]   

 permute_4 (Permute)  (None, 1, 3, 3)             0  conv2d_14[0][0]   

 activation_5         (None, 1, 3, 3)             0  permute_4[0][0]   
 (Activation)                                                          

 conv2d_13 (Conv2D)   (None, 3, 3, 64)        4,160  activation_4[0][ 

 permute_5 (Permute)  (None, 3, 3, 1)             0  activation_5[0][ 

 multiply_2           (None, 3, 3, 64)            0  conv2d_13[0][0],  
 (Multiply)                                          permute_5[0][0]   

 dropout (Dropout)    (None, 3, 3, 64)            0  multiply_2[0][0]  

 conv2d_15 (Conv2D)   (None, 3, 3, 128)      73,856  dropout[0][0]     

 batch_normalizatio  (None, 3, 3, 128)         512  conv2d_15[0][0]   
 (BatchNormalizatio                                                   

 activation_6         (None, 3, 3, 128)           0  batch_normalizat 
 (Activation)                                                          

 conv2d_16 (Conv2D)   (None, 3, 3, 16)        2,064  activation_6[0][ 

 conv2d_19 (Conv2D)   (None, 3, 3, 1)            17  conv2d_16[0][0]   

 permute_6 (Permute)  (None, 1, 3, 3)             0  conv2d_19[0][0]   

 activation_7         (None, 1, 3, 3)             0  permute_6[0][0]   
 (Activation)                                                          

 conv2d_18 (Conv2D)   (None, 3, 3, 128)      16,512  activation_6[0][ 

 permute_7 (Permute)  (None, 3, 3, 1)             0  activation_7[0][ 

 multiply_3           (None, 3, 3, 128)           0  conv2d_18[0][0],  
 (Multiply)                                          permute_7[0][0]   

 conv2d_20 (Conv2D)   (None, 3, 3, 128)     147,584  multiply_3[0][0]  

 batch_normalizatio  (None, 3, 3, 128)         512  conv2d_20[0][0]   
 (BatchNormalizatio                                                   

 activation_8         (None, 3, 3, 128)           0  batch_normalizat 
 (Activation)                                                          

 conv2d_21 (Conv2D)   (None, 3, 3, 16)        2,064  activation_8[0][ 

 conv2d_24 (Conv2D)   (None, 3, 3, 1)            17  conv2d_21[0][0]   

 permute_8 (Permute)  (None, 1, 3, 3)             0  conv2d_24[0][0]   

 activation_9         (None, 1, 3, 3)             0  permute_8[0][0]   
 (Activation)                                                          

 conv2d_23 (Conv2D)   (None, 3, 3, 128)      16,512  activation_8[0][ 

 permute_9 (Permute)  (None, 3, 3, 1)             0  activation_9[0][ 

 multiply_4           (None, 3, 3, 128)           0  conv2d_23[0][0],  
 (Multiply)                                          permute_9[0][0]   

 dropout_1 (Dropout)  (None, 3, 3, 128)           0  multiply_4[0][0]  

 conv2d_25 (Conv2D)   (None, 3, 3, 256)     295,168  dropout_1[0][0]   

 batch_normalizatio  (None, 3, 3, 256)       1,024  conv2d_25[0][0]   
 (BatchNormalizatio                                                   

 activation_10        (None, 3, 3, 256)           0  batch_normalizat 
 (Activation)                                                          

 conv2d_26 (Conv2D)   (None, 3, 3, 256)     590,080  activation_10[0] 

 batch_normalizatio  (None, 3, 3, 256)       1,024  conv2d_26[0][0]   
 (BatchNormalizatio                                                   

 activation_11        (None, 3, 3, 256)           0  batch_normalizat 
 (Activation)                                                          

 conv2d_27 (Conv2D)   (None, 3, 3, 256)     590,080  activation_11[0] 

 batch_normalizatio  (None, 3, 3, 256)       1,024  conv2d_27[0][0]   
 (BatchNormalizatio                                                   

 activation_12        (None, 3, 3, 256)           0  batch_normalizat 
 (Activation)                                                          

 dropout_2 (Dropout)  (None, 3, 3, 256)           0  activation_12[0] 

 flatten (Flatten)    (None, 2304)                0  dropout_2[0][0]   

 dense (Dense)        (None, 512)         1,180,160  flatten[0][0]     

 activation_13        (None, 512)                 0  dense[0][0]       
 (Activation)                                                          

 dropout_3 (Dropout)  (None, 512)                 0  activation_13[0] 

 dense_1 (Dense)      (None, 256)           131,328  dropout_3[0][0]   

 activation_14        (None, 256)                 0  dense_1[0][0]     
 (Activation)                                                          

 dropout_4 (Dropout)  (None, 256)                 0  activation_14[0] 

 quaternion (Dense)   (None, 4)               1,028  dropout_4[0][0]   

 normalized_quatern  (None, 4)                   0  quaternion[0][0]  
 (Lambda)                                                              

 Total params: 9,416,557 (35.92 MB)
 Trainable params: 3,138,041 (11.97 MB)
 Non-trainable params: 2,432 (9.50 KB)
 Optimizer params: 6,276,084 (23.94 MB)

